data.pth (torch, 5418 bytes, 6 tensors)

l1.weight f4 [8, 54]
000000 f2 85 47 3f ba 92 9b be e3 a5 05 3f f9 e6 c5 3e
       0.7793876 -0.3038538 0.5220625 0.3865278
000010 3b 30 14 3f e2 9e 2d bd 29 a2 bb 3e 04 6b f4 3e
       0.57886094 -0.04238785 0.36647156 0.47737896
000020 5c 2e d0 3e c0 e9 f2 3e 0e f5 ee 3e 11 66 6d be
       0.4066037 0.47443962 0.46671337 -0.23183466
000030 91 04 cc 3c 83 58 aa be ec ba c2 bd b9 c4 07 be
       0.024904521 -0.33270654 -0.09508309 -0.13258637
000040 b9 13 2e 3f 03 cc 87 bd d8 89 60 be 3a d9 39 3f
       0.67998844 -0.06630709 -0.21927583 0.72597086
000050 a8 5f 04 3f ff 5d 4e 3f c4 9e 60 3f 1d 94 74 3e
       0.5170846 0.80612177 0.8774226 0.23884626
000060 e0 a6 72 3b e1 be 09 3f 35 7f e9 be ba a7 96 be
       0.0037025735 0.53806883 -0.45604864 -0.2942484
000070 fb 1b 40 be 4b 06 b9 be 67 56 b2 be ec a2 d3 be
       -0.18760674 -0.36137614 -0.34831545 -0.41335237
000080 93 e2 f6 3e af 82 0c 3f 31 4f 16 be 87 d2 1e be
       0.48219737 0.5488691 -0.14678647 -0.15509997
000090 fe 70 c5 be f3 1b 96 3e 83 a5 93 3e 48 d1 9a 3e
       -0.3856277 0.293182 0.28837213 0.30237794
0000a0 5d 69 60 be c1 ed f9 be 58 2e 6d be 5c 79 c5 bd
       -0.21915193 -0.48814204 -0.2316221 -0.09642288
0000b0 f3 98 2a 3e 07 44 70 be 7f d1 87 3f 9f a7 2a 3f
       0.16659908 -0.2346345 1.0610808 0.6666202
0000c0 d5 08 b3 3e 77 70 f1 be c1 77 80 bd e0 31 92 be
       0.34967676 -0.47156116 -0.06272841 -0.28553677
0000d0 cd 49 6e 3e 4f 83 b9 3e 72 df 25 3f 27 f5 10 3f
       0.2327034 0.36232993 0.64794075 0.5662407
0000e0 4b 70 0e 3e c7 98 39 be 93 4d 22 bf d1 85 ed 3e
       0.13910024 -0.18124686 -0.6339962 0.46391156
0000f0 32 2c 8d 3e c6 af bc 3d f5 b6 e0 3e a7 f4 73 bd
       0.2757278 0.092132136 0.43889585 -0.05955949
000100 81 00 e2 be 67 2f 42 be fb 55 86 3e 47 1d c3 bd
       -0.4414101 -0.18963395 0.26237473 -0.095270686
000110 45 6b d2 3e 95 4c 97 bd c9 71 83 be 54 04 5e 3d
       0.41097465 -0.07387654 -0.2567275 0.054203346
000120 1a 15 cd be b8 a3 27 bf 25 31 dc 3e b0 b1 32 bf
       -0.40055162 -0.6548419 0.43006244 -0.6980238
000130 d2 b1 32 bf a2 38 03 bf 83 f9 52 be f9 47 b2 be
       -0.6980258 -0.5125829 -0.20602994 -0.34820536
000140 67 a8 c4 be 49 1a 3e 3f d9 50 e3 3b 85 86 1c 3f
       -0.3840973 0.7425886 0.006937128 0.6114276
000150 84 b4 7d 3e ac f1 2d be 83 7e f4 bb 0d 3c 24 3e
       0.24775892 -0.16986722 -0.0074613704 0.16038533
000160 5a 16 19 3f 3c 09 88 be 4e fe 81 bd 29 57 aa 3e
       0.5979973 -0.26569545 -0.06347333 0.33269623
000170 d3 3c 99 3e 51 be a9 3e fa 69 18 3e d3 2e 49 bf
       0.29929218 0.33153012 0.14884177 -0.78587073
000180 4e e8 af bd a2 4e fc 3e 12 a0 f6 3d 37 ab 28 3f
       -0.085892305 0.49278742 0.1204225 0.65886253
000190 dd 64 49 3f 0a c8 2e 3f 59 db 2c be 0e 8e 1f bf
       0.7866953 0.68273985 -0.1688055 -0.62326133
0001a0 92 cc 66 be 8c c8 d5 be b8 6a c0 3e 36 ae e5 3e
       -0.22538975 -0.41754568 0.3758142 0.44859475
0001b0 4a b4 64 be dc 68 4a 3c 28 40 99 be 3d e3 65 bd
       -0.223344 0.012354102 -0.2993176 -0.056124914
0001c0 64 7c 5d be f0 37 a2 3e 54 7a e7 bd e1 33 13 bf
       -0.21629483 0.31683302 -0.11302629 -0.57501036
0001d0 f2 6e b6 be 04 0a b5 be a9 3d 98 bd 66 76 34 3f
       -0.3563152 -0.35359204 -0.07433636 0.7049316
0001e0 e9 7b b3 3e ab af 77 3f 6c 66 f5 3b 45 63 0d 3f
       0.35055473 0.96752423 0.0074890163 0.552296
0001f0 a7 f1 95 bd e0 0e f5 3d c4 b1 dc 3e f5 cf 9d be
       -0.07321482 0.11965728 0.43104374 -0.3082272
000200 53 38 89 be de f3 d3 be df 80 99 be 5d 3a 42 3f
       -0.26800784 -0.41396993 -0.29981133 0.75870305
000210 70 68 50 3e a1 ff 27 be bb 68 15 3f ad ad c8 bc
       0.2035234 -0.16406108 0.5836293 -0.024496878
000220 ef 8d c2 3e c9 36 41 3e c1 34 f0 3e d5 18 67 3f
       0.37998912 0.18868555 0.46915248 0.90272266
000230 a6 3a fc bd 24 a5 89 be a0 d6 c6 3c 3d c9 b7 3e
       -0.12315874 -0.26883805 0.024272263 0.3589572
000240 01 f4 c8 3e 41 f3 5a be c7 bb 11 be bb ac f0 bd
       0.3924866 -0.21381857 -0.14231788 -0.11751696
000250 1f fb ac 3e 64 75 12 3f 2c 1a 2f 3f 85 47 88 3d
       0.3378534 0.57210374 0.6839931 0.06654266
000260 39 fd c7 3e 5d 98 e3 3b bf ec 61 bf 09 41 c0 be
       0.3906038 0.0069456534 -0.8825187 -0.37549618
000270 57 ff ba 3e 37 bb 1d 3f ff 0f a9 3e 68 3b a7 3e
       0.36522934 0.6161379 0.33020017 0.3266251
000280 39 a3 1b be ae fe e6 3d d9 1b 31 3f 5e 3d 7b be
       -0.15198983 0.11279045 0.6918312 -0.24535128
000290 e3 b1 05 3f 9e b9 a6 3e d9 fa 33 3f e4 5f 8c be
       0.5222456 0.3256349 0.7030464 -0.2741691
0002a0 9c b9 0a 3f bc b5 cf 3e 72 09 1f 3f 30 e4 b9 3e
       0.5418947 0.4056834 0.6212379 0.36306906
0002b0 72 d1 1f 3f 86 03 83 be 32 a1 19 3f 2e 00 ae be
       0.62428963 -0.25588626 0.6001159 -0.33984512
0002c0 7c e1 34 be ea 34 cd be 5a c8 df 3e 80 f2 f9 3a
       -0.1766414 -0.40079433 0.43707544 0.0019069463
0002d0 0d 6e d9 3e a8 75 67 3f fe 10 86 3e 01 a2 45 3f
       0.42466775 0.90413904 0.2618484 0.77200323
0002e0 c0 3d 42 3f 3f cd 30 3d 64 f1 95 3e 92 9f f0 3e
       0.75875473 0.043164488 0.2928573 0.46996742
0002f0 38 85 2b 3f d0 b7 d2 be 5d f0 ff 3e 56 80 b7 be
       0.6700015 -0.41155863 0.4998807 -0.358401
000300 df 37 e9 be ee 66 35 be dd 6d 40 3f 1d ed f4 3e
       -0.4555044 -0.17715046 0.7516764 0.47837153
000310 c4 6a cd bb c6 82 8c be d0 24 a2 3e ca ce 1c 3f
       -0.006268831 -0.27443522 0.3166871 0.61253035
000320 85 28 05 3f 39 90 08 3f ed 47 e7 be 35 ad 01 3f
       0.5201495 0.53345066 -0.45172063 0.5065492
000330 97 8a 6a be e8 13 57 be c1 bd a5 3e 9b 87 d5 3d
       -0.2290443 -0.21003687 0.32371333 0.10426255
000340 41 8d 58 3f 5d af ca 3e 1d 21 03 3f 56 07 4a 3f
       0.84590536 0.39586917 0.512224 0.78917444
000350 64 cd a6 be d1 e4 f5 3e 69 7e db 3e 57 94 46 3f
       -0.32578576 0.48026136 0.4286988 0.775701
000360 8b cf 5d be 22 1b 14 bf 09 eb ad 3d 89 71 fe 3e
       -0.21661203 -0.578539 0.08492095 0.49695995
000370 ee bc f1 3e d5 63 ca 3d 05 c3 4e bc 88 94 8c bd
       0.47214454 0.09882323 -0.0126197385 -0.068642676
000380 0e 9c 02 be 3e e2 3e be ab bb 0e 3f 93 d8 9b 3e
       -0.12754843 -0.18640992 0.5575511 0.3043867
000390 bc 49 04 3e b1 78 d6 3e 16 34 81 be 62 fe 59 3e
       0.12918752 0.41888955 -0.2523505 0.21288446
0003a0 6b 9b 12 3f 38 01 b2 bc 54 0a be 3e d8 81 3d 3f
       0.572684 -0.021729097 0.37117255 0.7402625
0003b0 c5 19 ae bd f9 17 49 3f 54 fb 1f 3f ee f5 27 3f
       -0.08501009 0.78552204 0.6249287 0.65609634
0003c0 f7 af e4 3d a8 27 ba 3e 91 65 4f 3e 8c 96 ab be
       0.11166375 0.3635838 0.20253588 -0.33513296
0003d0 85 93 aa 3d 39 9f a4 be 6c 79 6a bd be 0b 03 3f
       0.08328918 -0.32152727 -0.057244703 0.5118979
0003e0 96 49 eb bd cb 7c ca bc 1c 93 65 be 3b e5 22 3e
       -0.11488645 -0.024717709 -0.22419399 0.15907757
0003f0 79 b9 06 3e 22 de ef bd 90 12 f7 3d e5 04 5f 3e
       0.1315669 -0.1171229 0.120640874 0.21779211

l1.bias f4 [8]
000000 96 85 12 3f f9 b8 32 3f a1 e4 61 3f ca 18 c2 3e
       0.57235086 0.69813496 0.88239485 0.37909538
000010 da fb 80 3f 8e cb 15 3f 3f 8d 38 3f 90 d0 db 3e
       1.0076859 0.58513725 0.72090524 0.42932558

l2.weight f4 [8, 8]
000000 aa f1 53 bf 60 48 94 3f 06 e5 a3 3e fe ca 77 3f
       -0.82790625 1.1584587 0.3201067 0.96794116
000010 88 d7 a9 be 41 be 73 3f 9a 06 05 be 5d 45 87 3f
       -0.3317225 0.9521218 -0.129908 1.0568043
000020 4a 49 bb be c7 6e 4a 3f 34 d2 00 3f 75 f3 96 bf
       -0.36579353 0.7907528 0.50320745 -1.1793047
000030 cd 2c 00 3f c7 dd ab 3e 9b a0 02 3f aa 6a 96 be
       0.5006836 0.3356764 0.51026314 -0.29378253
000040 c4 43 b3 3d 08 55 85 3d 60 07 d0 bc b7 08 9c be
       0.0875316 0.06510359 -0.025394142 -0.304754
000050 6a e6 3f 3e 71 53 32 be ab 2d 8f be e0 81 02 3c
       0.1874024 -0.17414643 -0.2796453 0.007965535
000060 87 06 73 3d ee 9a 79 3f 2d 7d 1a bf 63 56 13 3f
       0.059332397 0.9750203 -0.60347253 0.5755369
000070 c5 6f 31 bf 0e d7 73 bf 4b f8 a5 3f fd 72 ac 3f
       -0.6931117 -0.9525002 1.2966398 1.3472592
000080 67 2c 10 be 0d 85 8c 3f e2 ee 5d 3f e6 6c 85 bf
       -0.14079438 1.0978104 0.8669263 -1.0423858
000090 fb 23 c6 3d 91 07 05 bf 01 57 54 3f 75 41 22 3f
       0.096748315 -0.5196467 0.8294526 0.6338113
0000a0 82 63 8a be 7e 97 4f bf 71 14 69 3f 48 37 00 3f
       -0.27029043 -0.81090534 0.91046816 0.5008435
0000b0 ad db 92 3f 84 ce 49 bf 87 08 83 3f 8c 32 c9 be
       1.147329 -0.7883074 1.0236977 -0.39296377
0000c0 fb 2f cb 3f 11 e3 47 3b eb ca 04 bf 2c f2 ab 3f
       1.5874017 0.0030500332 -0.5187213 1.343328
0000d0 f0 ae 2b 3f 84 10 9f 3f be a6 02 bd 44 6c 82 3c
       0.6706381 1.2426915 -0.0318973 0.015920766
0000e0 98 c3 84 bd 91 c3 09 3e a8 0d 08 be 45 5a 85 be
       -0.06482619 0.13453509 -0.1328646 -0.26045433
0000f0 06 98 99 3e 16 aa 84 be 4e 38 23 be b6 73 a8 3d
       0.29998797 -0.25911015 -0.15939447 0.08225195

l2.bias f4 [8]
000000 75 e3 9a 3c 36 85 1b 3f b2 f2 49 be 08 47 62 3d
       0.018907288 0.6075014 -0.19721487 0.055243522
000010 bc 0f 1e 3f b3 f5 99 3e 78 a6 d2 3e d1 d3 73 be
       0.6174276 0.30070266 0.4114263 -0.2381127

l3.weight f4 [7, 8]
000000 45 a1 bf bf 74 f8 41 3f 77 6f a7 be 1a 94 c9 be
       -1.497109 0.75769734 -0.32702228 -0.39370805
000010 2d d4 e0 3e 3f 9b f5 3e 49 0f cc bf 77 0d 54 bd
       0.43911877 0.47970006 -1.5942165 -0.051770654
000020 94 a7 d9 3e 8c 31 d9 bd c7 f5 17 be fc d4 15 3f
       0.42510664 -0.106051534 -0.1483985 0.58528113
000030 a4 37 2b be 66 3c a5 bf 4c e8 d5 bf cb 5c b8 be
       -0.16720444 -1.2909057 -1.6711516 -0.36008295
000040 3d 22 04 3e 4f 6b 4f 3f b9 fa 22 be 28 ae 74 bf
       0.12903686 0.81023115 -0.15915956 -0.9557824
000050 65 74 ad 3e 5e 2e 60 be d8 ce 25 be 1d c3 c4 bd
       0.33877864 -0.21892688 -0.16192186 -0.096075274
000060 e4 7b 78 bf 29 61 9b bf 7b b0 13 be 19 f6 a3 bf
       -0.9706404 -1.2139026 -0.1442279 -1.2809478
000070 c1 92 be bf 14 88 f6 3e 77 cd 65 3f 5f d4 22 3e
       -1.4888536 0.48150694 0.8976664 0.15901326
000080 b2 67 20 3f 21 ca bd bf 0c e4 9e bd 6b 20 24 be
       0.62658226 -1.482731 -0.0775834 -0.16027991
000090 1c 46 46 bf cd 7c 1e 3f 10 28 e5 be 70 99 83 3d
       -0.7745073 0.6190918 -0.44757128 0.0642575
0000a0 07 01 a0 3e 57 bc 82 bf 62 8e ed bd 43 16 68 bd
       0.31250784 -1.0213727 -0.11599423 -0.056661855
0000b0 96 05 0b c0 88 31 c6 bf 10 30 3d 3f 69 4f fb 3d
       -2.172216 -1.5483866 0.7390146 0.12271006
0000c0 f2 08 05 3d b9 20 bc bf ec bd a6 bd 07 c4 3b 3f
       0.032479234 -1.4697486 -0.081416935 0.7334599
0000d0 20 a5 13 bf 6a 66 70 bf 63 1a c2 3d 4f 38 8e be
       -0.57673836 -0.9390627 0.09477689 -0.27777335

l3.bias f4 [7]
000000 b3 c0 84 be d2 22 07 be 6b a9 fb 3e 2d 2a 03 3f
       -0.25928268 -0.13196877 0.49152693 0.5123623
000010 6b 1a 19 bf df f8 41 3d 63 65 4e bd
       -0.59805936 0.047356483 -0.05038966
